cc/dual_net/test_model.tflite (tflite, 770316 bytes, 46 tensors)

conv2d/Conv2D_bias f4 [32]
000000 00 00 00 00 00 00 00 00 00 00 00 00 00 00 00 00
       0.0 0.0 0.0 0.0
000010 00 00 00 00 00 00 00 00 00 00 00 00 00 00 00 00
       0.0 0.0 0.0 0.0
000020 00 00 00 00 00 00 00 00 00 00 00 00 00 00 00 00
       0.0 0.0 0.0 0.0
000030 00 00 00 00 00 00 00 00 00 00 00 00 00 00 00 00
       0.0 0.0 0.0 0.0
000040 00 00 00 00 00 00 00 00 00 00 00 00 00 00 00 00
       0.0 0.0 0.0 0.0
000050 00 00 00 00 00 00 00 00 00 00 00 00 00 00 00 00
       0.0 0.0 0.0 0.0
000060 00 00 00 00 00 00 00 00 00 00 00 00 00 00 00 00
       0.0 0.0 0.0 0.0
000070 00 00 00 00 00 00 00 00 00 00 00 00 00 00 00 00
       0.0 0.0 0.0 0.0

conv2d/kernel f4 [32, 3, 3, 17]
000000 6f ae cf bd a5 08 82 3d 18 48 8c 3d 25 ce b2 bc
       -0.101406924 0.06349305 0.06849688 -0.021826813
000010 1e 40 56 3d 14 1c e8 3c ca a2 bc 3d f3 64 d1 bc
       0.05230724 0.028333701 0.09210737 -0.025560832
000020 40 96 25 bd 12 7f 61 3d 8d 67 cc 3c 45 01 c0 3d
       -0.040426493 0.055052824 0.02495172 0.09375242
000030 6b b0 88 3c 5b 41 dd 3d a8 01 13 3d ff bb d0 bd
       0.016685685 0.10803481 0.03589025 -0.101921074
000040 2e bc 2f bd 79 fd b1 bd ef ed b4 3d d2 84 8c 3d
       -0.04290407 -0.08690924 0.08834445 0.06861271
000050 30 7c 06 3d 05 8f 89 3d 94 76 ca 3d cd dc c7 bd
       0.03283328 0.06716732 0.09885898 -0.09758911
000060 29 d4 59 3d 8f 4c 94 ba 22 c7 a9 bd 3e 03 fa 3b
       0.053180847 -0.001131432 -0.08289935 0.007629781
000070 f5 af bf 3d 36 92 a3 3d 97 a6 53 3d 10 1b 44 bd
       0.09359733 0.07986872 0.051672544 -0.04787737
000080 5a 32 60 3d c0 ed 42 bb af bb f7 b9 c6 a1 0c 3d
       0.05473552 -0.002974376 -0.00047251346 0.034333967
000090 c8 76 ce 3d b9 43 ec bd d0 89 ec 3d 98 9d 85 3d
       0.100812495 -0.115363546 0.11549723 0.06524199
0000a0 d2 27 0b bb 01 54 b4 3d a4 8e e4 bd 0a 85 cf 3d
       -0.0021233452 0.08805085 -0.11160019 0.10132797
0000b0 77 b9 46 3d f5 25 da bd 8a 5c 6b bd aa 10 62 3d
       0.048516717 -0.10651771 -0.0574613 0.055191673
0000c0 62 a2 d6 bc f3 7b 9e bd c3 36 cd bd 87 70 2e 3c
       -0.026200477 -0.07738485 -0.100202106 0.010646946
0000d0 44 52 e1 bd eb 1f 82 3d cc ab 85 3d e2 2e 55 3d
       -0.11002019 0.06353744 0.06526908 0.052046664
0000e0 86 e1 00 3d b5 38 b4 3b 74 6e 36 bc 50 e7 43 bc
       0.031465076 0.005499924 -0.0111347325 -0.011957005
0000f0 39 0c a1 3d 60 46 36 bd 76 87 d6 bd 98 31 bc 3d
       0.078636594 -0.04450071 -0.10475056 0.09189147
000100 4c 99 91 bc 33 96 a1 bc d0 48 ab bd 5c 3c 86 3d
       -0.017773293 -0.01972494 -0.08363497 0.065544814
000110 62 21 49 3d da 33 d6 bb 3d 48 7d bc ff d3 ae bd
       0.049104102 -0.006536943 -0.0154591175 -0.08536529
000120 0d 22 c1 bd a0 9b b4 bd 46 2b 8c 3d c5 fe b3 bd
       -0.09430323 -0.088187456 0.06844191 -0.08788828
000130 e0 ca da 3c 67 14 57 bd 04 e3 04 bd 9f ec 83 3d
       0.026708066 -0.05250969 -0.03244306 0.06441616
000140 83 6f 75 3d ac 92 8b bd 1e 53 36 bd 7b 2c 2e bd
       0.0599208 -0.06815085 -0.04451286 -0.04252289
000150 d6 f7 f9 3c ed 89 8b bd a6 57 81 3d a7 0a ba bc
       0.030513685 -0.06813417 0.06315546 -0.022710158
000160 d1 b2 90 3c 74 5f ce 3d 60 5b 87 bd 32 33 62 bd
       0.017663391 0.100768 -0.06609225 -0.055224605
000170 e4 62 d4 bd 33 4c 45 3d 0f 65 5f 3d 51 2e 70 3c
       -0.103704244 0.048168372 0.054539736 0.01465948
000180 ef ff d2 bc 3e 40 be bc 88 af 5a 3d 10 12 69 3d
       -0.025756804 -0.023223992 0.053390056 0.05690199
000190 7e d2 19 bc e9 dd ad 3d 90 4e 81 bd b1 cf b2 3d
       -0.009388564 0.08489592 -0.06313813 0.0873102
0001a0 c2 ac b7 3d 9e dc c8 3b fa b7 a1 bd b6 5a e2 3b
       0.08968498 0.0061298152 -0.07896419 0.0069077862
0001b0 0e 88 11 bd 39 0a 65 3d 57 7e 84 bd 35 6b d2 3d
       -0.035530142 0.055917952 -0.0646941 0.10274354
0001c0 1b c2 8e 3d 6f b7 c4 3d 2e 17 55 3d 47 6a c1 3d
       0.069706164 0.096053 0.05202406 0.09444099
0001d0 0d d8 1a bb d9 ab a8 bb bd b9 e4 3d 07 18 89 bd
       -0.0023627311 -0.005147439 0.11168239 -0.06694036
0001e0 03 a7 2d bd c8 77 73 bc 9c 4d e7 3c 8c 94 07 bd
       -0.042395603 -0.014860101 0.02823525 -0.03310065
0001f0 90 fc e1 3d d0 6b d7 bd 7a f7 d4 3d 13 50 bb 3c
       0.110345006 -0.105186105 0.10398765 0.02286533
000200 1e 90 bd bd 45 18 90 3d c8 1d c4 3c 9f 5f de 3d
       -0.09256004 0.07035879 0.023939982 0.10858082
000210 72 90 c8 3d 28 7e b1 3d 11 95 cb bd dc cf fe bc
       0.09793176 0.086666405 -0.099405415 -0.031104974
000220 95 9f c6 3d 89 d2 26 bc f5 02 cb bd ce 7b 17 3d
       0.096984066 -0.010182031 -0.099126734 0.036983304
000230 74 4b b8 3c ff 16 ad bc a8 9b c8 3d 54 39 8b bd
       0.022496916 -0.02112913 0.09795314 -0.06798044
000240 7c ea 36 3d 6b 2d 2e 3d 35 ec 40 bd be ce 47 bb
       0.044657215 0.042523783 -0.047100265 -0.0030488218
000250 a5 3c 1a bd 82 81 ec 3b 58 fd cb bd fe ab 48 3d
       -0.03765549 0.007217587 -0.09960431 0.04899215
000260 83 1f 52 3d dc 5c 2a 3d 49 c4 7d bd d8 02 c4 3c
       0.051299583 0.041592464 -0.06195477 0.023927137
000270 1d 1c 64 bc 22 3f a4 bd e2 e3 bd 3d a6 a5 e8 bd
       -0.013922718 -0.08019854 0.09271981 -0.1135972
000280 f2 c5 3c 3c 1d c2 7d bc 1f 0d a8 bd f9 38 53 bd
       0.011521803 -0.015488175 -0.08205628 -0.051568005
000290 30 30 b7 bc 85 c6 8d 3d 1b 4f ea 3c 9b be 87 bd
       -0.022361845 0.0692263 0.028602174 -0.06628152
0002a0 ab 63 0a 3d 30 3a c3 bb 0b 2a 1b bd d9 ad e5 bc
       0.033786457 -0.005957864 -0.037881892 -0.028036999
0002b0 00 d7 c2 bd b1 66 83 bd d9 7b 38 bd bc cf 4d b9
       -0.09513664 -0.06416071 -0.045039985 -0.0001962771
0002c0 50 b7 d2 bd 2d 39 99 bd 3b eb ba bd fd 76 cb 3d
       -0.1028887 -0.074816085 -0.09126898 0.099348046
0002d0 17 b1 e6 bd 7f 79 ab bd 3f ba 81 bd 0e d3 5c bd
       -0.11264246 -0.08372783 -0.06334352 -0.053912215
0002e0 d9 1a a7 3c c1 f3 3e 3c 5f 89 8b bd d2 ea 8b 3c
       0.020398544 0.011654795 -0.06813311 0.017079744
0002f0 f6 f8 bc bd 37 11 ea bc 65 42 e5 3b 06 bf c8 bc
       -0.09227173 -0.028572662 0.0069964402 -0.02450515
000300 ae 28 c9 3d c8 b2 aa bd 53 6f 09 bb 16 73 97 bc
       0.09822212 -0.08334881 -0.0020970895 -0.018487494
000310 b9 82 d8 3c 13 a2 ad 3d 4f 58 78 bd fc f1 37 bd
       0.02642952 0.08478179 -0.060631093 -0.04490851
000320 2e 32 8e bd 88 60 d0 3d e5 1a f0 bc 73 a2 b0 bd
       -0.06943165 0.10174662 -0.0293097 -0.08624735
000330 a9 0f 8f bc e7 d0 96 bc d1 fb b4 bc 99 57 ad 3d
       -0.017463522 -0.01841016 -0.022092732 0.084639736
000340 cc 54 ce bd ca 3e 01 3d d3 6a b3 bd 77 68 2d bc
       -0.100747675 0.03155402 -0.087606095 -0.010583988
000350 ab be a0 bd c0 07 0b bd f6 fb e0 ba 1c 13 31 bd
       -0.07848867 -0.033942938 -0.0017164934 -0.043231115
000360 4d 6c 03 bd 3a 1b ef bc ed fc 1a 3d 6e 05 c9 bc
       -0.032085706 -0.029187787 0.037838865 -0.024538722
000370 af 04 9c 3d d6 41 c9 3c 9d 3c b9 bd 01 d8 be ba
       0.07618081 0.024567526 -0.09044764 -0.0014560224
000380 02 26 f9 bc 4c b3 9f 3c ef 86 15 bc b0 ed 04 bd
       -0.030413631 0.019494675 -0.009126409 -0.03245324
000390 c1 23 40 3c 86 bf a4 3d ec c3 05 bc 7b 07 cd 3d
       0.011727274 0.08044343 -0.008164387 0.100111924
0003a0 8e 85 ed 3d 2a 0a e0 3d ef 98 14 3d 68 4b c8 3d
       0.11597739 0.10939439 0.03627866 0.097800076
0003b0 21 dc 8e 3d f5 54 ee bd 09 48 28 3b 5c 25 e7 3c
       0.0697558 -0.11637298 0.0025677702 0.028216057
0003c0 b5 cd 3a bd 0c 57 98 3d 25 b5 63 bc b8 e9 5a 3c
       -0.045606334 0.07438478 -0.013898169 0.013361387
0003d0 50 dd 72 3b 33 89 ee bd d8 74 11 3d 71 07 db bd
       0.0037058182 -0.116472624 0.03551182 -0.10694779
0003e0 74 96 1e 3d 7e 16 b4 bd 55 24 10 bd 33 c7 02 bd
       0.038717702 -0.087933525 -0.0351909 -0.031928252
0003f0 db bc 69 bd 6c 4b d6 3d 6e 4a a3 bc 6d 74 c7 3d
       -0.057064872 0.10463604 -0.019932952 0.09739003

conv2d_1/Conv2D_bias f4 [32]
000000 00 00 00 00 00 00 00 00 00 00 00 00 00 00 00 00
       0.0 0.0 0.0 0.0
000010 00 00 00 00 00 00 00 00 00 00 00 00 00 00 00 00
       0.0 0.0 0.0 0.0
000020 00 00 00 00 00 00 00 00 00 00 00 00 00 00 00 00
       0.0 0.0 0.0 0.0
000030 00 00 00 00 00 00 00 00 00 00 00 00 00 00 00 00
       0.0 0.0 0.0 0.0
000040 00 00 00 00 00 00 00 00 00 00 00 00 00 00 00 00
       0.0 0.0 0.0 0.0
000050 00 00 00 00 00 00 00 00 00 00 00 00 00 00 00 00
       0.0 0.0 0.0 0.0
000060 00 00 00 00 00 00 00 00 00 00 00 00 00 00 00 00
       0.0 0.0 0.0 0.0
000070 00 00 00 00 00 00 00 00 00 00 00 00 00 00 00 00
       0.0 0.0 0.0 0.0

conv2d_1/kernel f4 [32, 3, 3, 32]
000000 cf a7 a2 3d ef 45 3d bd 7d 8c 4d 3c aa 14 ee 3c
       0.07942163 -0.046209272 0.012545702 0.029062588
000010 22 cf bf bd 6c 8c 4f 3c 26 4b 7f bd ad 56 b9 3d
       -0.09365679 0.0126677565 -0.062327527 0.09049735
000020 63 c0 90 3d ff d0 a0 bd d6 b7 a3 bc b5 69 65 bc
       0.07067945 -0.07852363 -0.01998512 -0.014002253
000030 fa 9a c8 bc c1 10 41 bb b1 fe 58 bc a7 33 ac 3d
       -0.024487961 -0.002945945 -0.013244317 0.084082894
000040 aa 13 b8 bd 8d e4 82 bc 46 7e 61 3d 00 2a 2b 3c
       -0.089881256 -0.015978122 0.055052064 0.010447025
000050 31 a3 a0 3d 94 4c c3 3d 35 de 6f 3d 09 b5 9b 3d
       0.07843626 0.095360905 0.058561523 0.07602889
000060 cc 8f 12 3d 9b 12 03 bd f0 f6 35 bd 00 86 b7 bd
       0.035781667 -0.032000165 -0.04442495 -0.08961105
000070 43 7d 47 3d ab f5 8f bd 78 10 da 3c a7 ef 3a 3d
       0.048703443 -0.07029279 0.026619181 0.045638707
000080 ac eb c9 bd 0f f1 5d bd bd 96 64 3d 1e 92 bd bc
       -0.09859404 -0.05418497 0.055807818 -0.023140963
000090 aa de 12 bd c7 81 96 bc 64 38 73 3d 16 a8 3d 3d
       -0.03585688 -0.01837243 0.05937995 0.046302877
0000a0 4b ab 5e 3d 86 8e 97 bd a9 45 a7 bc a4 75 1f 3d
       0.054362576 -0.07400231 -0.020418959 0.03893055
0000b0 ca 2e 11 bd 30 2c 2a bd cf 94 09 3d d4 9a 50 3d
       -0.035445012 -0.041546047 0.03358918 0.050928906
0000c0 1d 81 34 3d d1 ea 49 bd 84 8e 64 bd 93 91 77 3d
       0.044068445 -0.049296204 -0.055799976 0.060441565
0000d0 26 ca 92 3d f1 3a a7 3c 13 c8 88 bd c8 1b ab b8
       0.07167463 0.020413848 -0.06678786 -8.15909e-05
0000e0 2d 76 8a 3d 8c 06 0c bd 9c 16 96 bd 93 02 55 bd
       0.067608215 -0.03418593 -0.07328531 -0.052004408
0000f0 ef 80 53 3d 55 95 a2 3d e9 1c 29 bd d9 aa 56 bd
       0.051636633 0.07938639 -0.041287336 -0.052409027
000100 dc a2 98 bd ff 9b 16 3d 32 5b 8b 3b 5d 2c b1 bd
       -0.07452938 0.036769863 0.0042528147 -0.0865104
000110 26 67 b1 bb 09 50 a7 bd f0 67 93 3d ec 97 86 bd
       -0.0054139076 -0.08169562 0.07197559 -0.065719455
000120 e1 f7 7c 3d aa e9 b0 3c 0b bc 9b 3d b3 96 0a 3b
       0.061759833 0.021595795 0.07604226 0.0021146953
000130 29 b4 5c bd cd 3d 1a 39 74 69 87 bd 38 44 ab 3d
       -0.05388275 0.00014709607 -0.066119105 0.08362621
000140 e2 bb ee 3c 22 60 91 3d d8 40 81 3d 49 a8 0e bc
       0.029142324 0.07098414 0.06311196 -0.0087071145
000150 c7 d2 7b bd c3 c8 66 bd 71 53 a8 3d 0d 30 88 3d
       -0.06148031 -0.056343805 0.0821904 0.0664979
000160 7d d8 bb bd 1e 43 62 3c 13 af 71 bd d5 ca 46 bd
       -0.09172151 0.013809947 -0.059004854 -0.04853328
000170 b1 2c c1 bb 48 46 ab bb 18 56 a5 bd 12 69 a0 bd
       -0.00589522 -0.005226884 -0.08073062 -0.078325406
000180 11 52 c7 3d 8f 23 8f bd d9 4e 8f 3d 4c 49 9e 3d
       0.0973245 -0.06989204 0.06997461 0.07728824
000190 01 7f 84 3d f9 2c af 3d 1a 2f c8 3d 42 57 e2 bc
       0.064695366 0.085535 0.09774609 -0.027629498
0001a0 57 86 a1 bc bb 1b a7 bd 6a b5 3c bc b6 d1 b1 3b
       -0.019717379 -0.08159586 -0.011517862 0.005426611
0001b0 b1 67 c9 bd e6 ba bb 3d 17 7c 77 3d 39 e9 cb 3d
       -0.09834231 0.091665074 0.060421076 0.09956593
0001c0 fb 87 f7 bc fc 33 1d bc 13 2b 3a bc c9 8e c1 bd
       -0.030216208 -0.009594914 -0.011362809 -0.09451062
0001d0 5f 3f 70 bd 7f 2d 35 bd 0b 40 ad 3d 07 ef 8d 3d
       -0.058654185 -0.04423284 0.08459481 0.069303565
0001e0 58 a2 c7 3d af df 76 3a af 42 51 bd 80 0e 92 3d
       0.097477615 0.0009417487 -0.051088985 0.07131672
0001f0 78 6e c8 bd 95 64 64 3b b5 7b 7b bc fc df a9 bd
       -0.09786695 0.003484999 -0.015349318 -0.08294675
000200 d7 44 90 bd 64 cb 37 bc 47 e7 01 bd dc a3 68 3d
       -0.0704438 -0.011217926 -0.031714704 0.056796893
000210 50 e7 b7 bc 80 db 9f 3d e6 46 05 bd d1 85 cb 3d
       -0.022449166 0.07805538 -0.032538317 0.09937633
000220 15 14 66 3d 72 fe b0 3d 11 3e 5e bd 9d 59 86 bd
       0.056171495 0.086422816 -0.05425841 -0.06560061
000230 c6 a3 a5 bc e7 42 c5 bd d9 96 57 3b 2c bc 0b bd
       -0.020219695 -0.09631901 0.0032896309 -0.034115
000240 d1 b0 ae 3d 6a 64 23 3c eb 3b a0 bc 91 03 82 bd
       0.08529819 0.009972671 -0.019559821 -0.063483365
000250 dc 11 1e 3d 2f a2 53 bd 4a 4b 62 3d 34 8b fe 3c
       0.03859125 -0.051668342 0.055247582 0.031072237
000260 99 2c 41 3c 3f 4b de 3c ae fe 84 bd fc 31 4e bd
       0.011790418 0.02713549 -0.06493889 -0.050340638
000270 14 f6 72 3d 4a 1c bd 3d 36 76 b5 3d de 7b 81 3c
       0.05931671 0.09233911 0.088604376 0.015806135
000280 f3 8e 88 3c 0f c1 5f bd 42 ca 60 3d 5d b2 e5 3c
       0.016669726 -0.054627474 0.054880388 0.028039152
000290 82 8c 05 bd 24 0c 7f bc d2 7c d4 bc e0 72 68 3d
       -0.0326047 -0.015566859 -0.025938425 0.05675018
0002a0 46 56 7a 3d 44 bd 76 bd 00 5a 2e bd 56 22 62 3d
       0.061117433 -0.06023909 -0.0425663 0.055208527
0002b0 74 64 cf bd cf 22 14 ba 2b 19 88 3c 3a 2c a3 3d
       -0.10126582 -0.0005650939 0.016613564 0.0796742
0002c0 23 e8 b9 bb f3 96 0a bd dc 7c 38 bd 35 b6 82 3d
       -0.005673425 -0.033835363 -0.04504095 0.063824095
0002d0 a9 8f 10 3d ae 10 7a 3c 23 b6 8e bd 61 3d 8f bd
       0.035293255 0.015262766 -0.069683336 -0.06994129
0002e0 6a 75 a5 3b 2c d2 41 3d c4 5d b8 3b 5d f2 31 bd
       0.0050493972 0.047319576 0.005626412 -0.043444026
0002f0 53 f7 39 bc 3d 33 1c 3d 0b b9 07 3d 5c 86 b5 bc
       -0.011350471 0.038134802 0.033135455 -0.022158794
000300 30 f8 8a 3d a8 1e 1e 3d d2 b8 4b bd ce 79 4a bc
       0.06785619 0.038603455 -0.049736805 -0.012358142
000310 2d 1c ad 3d 54 58 4e 3d 97 a8 22 3d ba b1 97 3d
       0.0845264 0.050377205 0.03971156 0.074069455
000320 50 d5 80 bd 8c fa a0 bd a6 dc a4 3c b9 ca d0 bd
       -0.06290686 -0.07860288 0.020124745 -0.10194916
000330 66 95 88 bd af 9b a2 3d 68 1c 40 bd 1c 26 13 bd
       -0.066691205 0.079398505 -0.04690209 -0.035925016
000340 31 f0 71 bd 3a fa d4 3a fc d8 99 3d 65 c3 68 bd
       -0.059066955 0.001624889 0.075120896 -0.056826968
000350 56 5e 01 ba ba 79 b1 bc 36 7e ec bc ad 86 28 bd
       -0.00049350166 -0.021664489 -0.028868776 -0.04114406
000360 d6 a1 9e 3d f8 c7 98 bd e5 52 bb 3d bf 9d 6b 3d
       0.077457115 -0.07460016 0.0914667 0.057523485
000370 2e 94 ac bd 70 f9 90 bb 6b fa 7e bd 05 fc a2 3d
       -0.084267005 -0.0044242665 -0.062250536 0.07958225
000380 ff 6f 38 3d 69 8a 86 bd a3 6e 3a 3c 64 de 8a bd
       0.045028683 -0.065693684 0.011378917 -0.06780699
000390 d8 ff c1 3d 4f 8e ba bd e6 ce 55 3d 24 af 85 3d
       0.094726264 -0.091091745 0.052199267 0.06527546
0003a0 56 6a a3 3d 0f ef a1 bc 68 88 bb bd 93 fe 91 bd
       0.07979266 -0.019767312 -0.09156877 -0.07128634
0003b0 f8 b0 5b 3d 47 1f 2f 3d 10 39 f5 3b b3 05 eb 39
       0.053635567 0.042754438 0.007483609 0.0004482694
0003c0 22 8b 3c bd 31 38 b3 3c d0 96 1d 3d 01 34 ae 3d
       -0.046031125 0.02187738 0.038473904 0.08506013
0003d0 9f ca f6 3c ce fd 96 bb 3e 26 c6 bd d4 2d 7f bc
       0.030125914 -0.0046078926 -0.09675263 -0.015574891
0003e0 e2 3a 0c 3d 57 8d 3f bd b0 43 f3 b9 f9 6e 8f 3d
       0.034235843 -0.04676565 -0.00046399003 0.07003588
0003f0 e6 d7 a3 bd 24 c7 86 bc 56 16 61 3c 45 b9 93 bd
       -0.08000164 -0.01645238 0.013738235 -0.07213072

conv2d_10/Conv2D_bias f4 [32]
000000 00 00 00 00 00 00 00 00 00 00 00 00 00 00 00 00
       0.0 0.0 0.0 0.0
000010 00 00 00 00 00 00 00 00 00 00 00 00 00 00 00 00
       0.0 0.0 0.0 0.0
000020 00 00 00 00 00 00 00 00 00 00 00 00 00 00 00 00
       0.0 0.0 0.0 0.0
000030 00 00 00 00 00 00 00 00 00 00 00 00 00 00 00 00
       0.0 0.0 0.0 0.0
000040 00 00 00 00 00 00 00 00 00 00 00 00 00 00 00 00
       0.0 0.0 0.0 0.0
000050 00 00 00 00 00 00 00 00 00 00 00 00 00 00 00 00
       0.0 0.0 0.0 0.0
000060 00 00 00 00 00 00 00 00 00 00 00 00 00 00 00 00
       0.0 0.0 0.0 0.0
000070 00 00 00 00 00 00 00 00 00 00 00 00 00 00 00 00
       0.0 0.0 0.0 0.0

conv2d_10/kernel f4 [32, 3, 3, 32]
000000 48 95 5a 3c a5 df a2 bd c3 92 5d 3d 13 47 c8 bd
       0.0133412555 -0.07952813 0.05409504 -0.09779181
000010 b0 18 9c bd 7f 7f f6 bc 5f 02 ad 3d 93 43 c7 3d
       -0.07621896 -0.030090092 0.08447718 0.09729686
000020 76 d7 40 bd 76 fa e0 3a 03 6d 26 bd 7d 07 9a bc
       -0.04708048 0.0017164487 -0.040631305 -0.018802399
000030 90 5c 9f bd 46 49 2b bd 87 1c f6 3c 0b f5 ad 3d
       -0.07781327 -0.041817926 0.0300429 0.08494004
000040 39 bf 71 3d e1 34 c2 bd 2f 39 9b bd 95 91 a2 bd
       0.059020255 -0.09482742 -0.07579266 -0.07937924
000050 5b 6e 9c bd b3 92 ea 3a f7 3e f7 bc 77 18 04 bd
       -0.07638236 0.0017896503 -0.030181391 -0.032249894
000060 df c0 35 bd cb bc 9f bd a1 11 ba 3d c9 03 4c 3d
       -0.04437339 -0.07799681 0.09085394 0.049808297
000070 f8 5f 92 3d 96 8b 9f bd 22 d5 85 3d 72 9b 3d 3c
       0.07147211 -0.07790296 0.065347925 0.011572706
000080 c2 89 bb b9 30 f8 1e 3d d7 d4 9c 3d 0b c5 2c 3d
       -0.00035770057 0.03881091 0.076577835 0.042180102
000090 80 d0 bb 3d d5 8c ac 3d 3f 7c 08 3d 50 ab c7 bd
       0.091706276 0.08425299 0.033321615 -0.09749472
0000a0 ec 20 c1 bd e5 82 8a 3d ae b3 5b bd f2 a9 ee 3c
       -0.094301075 0.067632474 -0.053638153 0.02913377
0000b0 be a9 8d 3d e8 57 97 3d 15 fd fb bc dc 16 ab 3c
       0.069171414 0.07389814 -0.030760327 0.020884924
0000c0 a0 84 87 3d b3 e9 ad bc 41 4d 04 3d 89 d9 9a bc
       0.06617093 -0.0212296 0.032300238 -0.018902557
0000d0 d2 8d 8d bc de 5f 4d bd 30 e4 cd 3d 0c 30 7f 3d
       -0.01727954 -0.050140254 0.10053289 0.06230168
0000e0 73 9a d1 3c 57 e2 92 bd be f6 fa 3b d6 90 e0 3c
       0.025586342 -0.07172077 0.0076588085 0.027412813
0000f0 55 42 9c 3d 4c c7 42 3d bb 34 a8 3d aa 1c a6 bd
       0.07629839 0.047553346 0.082131825 -0.08110936
000100 d8 c2 a1 bd fe b5 8d 3d e6 d3 97 3d 0b 1e df bc
       -0.078984916 0.06919478 0.07413463 -0.027236005
000110 ca 6c 86 3d a4 aa a7 bd 2b 57 a8 3d fb 7e b2 3d
       0.065637186 -0.08186844 0.08219751 0.08715626
000120 35 37 71 3d 88 87 72 bc 60 43 99 3d 06 92 55 3d
       0.05889054 -0.014802821 0.07483554 0.052141212
000130 8b ee a1 3b 26 1b bc 3d 56 d4 c3 3d 6a 2d 6e 3c
       0.0049417666 0.09184866 0.09561984 0.014537195
000140 60 d6 aa bd 55 e6 8e bd 4f a3 09 3d 39 3d 6b bd
       -0.0834167 -0.06977526 0.03360301 -0.057431433
000150 69 16 b5 3c 24 7d 2a 3d f6 d7 78 3c 3e a8 a4 3d
       0.022105413 0.04162325 0.015188208 0.08039902
000160 64 10 b8 bc f2 f2 3c 3c e8 4f b8 bd d2 b5 0b bd
       -0.022468753 0.011532532 -0.08999616 -0.034108944
000170 20 d6 2f bd 13 e6 ea bb 8e fe 38 bd 63 22 5d 3d
       -0.042928815 -0.0071685403 -0.045164637 0.05398787
000180 79 d9 b2 3c 26 fa 80 3b d0 6e 2a 3d f9 e1 56 3b
       0.021832215 0.00393607 0.041609585 0.0032788499
000190 c2 29 55 bc 1c e8 aa bd 55 a0 70 3d 31 b8 03 3d
       -0.013010444 -0.083450526 0.058746655 0.03215808
0001a0 1e 3a 17 bd a4 49 7a bd 4d b1 90 3c d2 66 95 bd
       -0.03692066 -0.061105385 0.017662669 -0.07295002
0001b0 b6 c9 c7 3c e1 46 27 bc b4 e1 1e bd fc c2 75 bd
       0.024388175 -0.01020977 -0.038789466 -0.060000405
0001c0 29 51 94 bd 21 a0 b1 bd f2 65 a3 3d 2e a2 c1 bd
       -0.072420426 -0.0867312 0.07978429 -0.094547614
0001d0 eb d9 69 bd 23 72 ba bd 32 12 0c 3c 64 1b 57 bd
       -0.05709259 -0.09103801 0.00854926 -0.052516356
0001e0 26 07 9f 3d e6 ec 80 bb 36 b0 e2 3a 7f 51 a6 3d
       0.07765035 -0.0039344905 0.0017294947 0.08121013
0001f0 e0 91 4f 3d 8d d0 51 bd 9c c1 11 bd 8a 33 6f bd
       0.050676227 -0.05122428 -0.03558503 -0.05839876
000200 4e fb 48 3d b9 24 72 3d 14 80 86 3b ec 13 94 bd
       0.049067788 0.059117053 0.0041046236 -0.07230362
000210 4d 42 64 bd 38 ae cb bd da e5 e0 bc 55 77 84 3c
       -0.05572729 -0.09945339 -0.027453352 0.016170183
000220 62 47 ed 3b 8e 2b 87 bd fc e9 4d 3b 48 b5 a4 bd
       0.0072411755 -0.06600104 0.0031419983 -0.08042389
000230 61 ca b2 bc 77 98 21 3d 8d f9 4b 3c a3 e8 38 bd
       -0.021825017 0.039452042 0.012449634 -0.045143735
000240 55 53 10 3d 0e 2e a3 3d b6 40 e0 3c e0 a8 aa bc
       0.03523572 0.079677686 0.027374607 -0.020832479
000250 3c a9 1d 3d bc a8 93 3d 99 ce be bd e5 13 34 bc
       0.038491473 0.07209918 -0.09316749 -0.010991071
000260 3e 6f 24 bd 7a 4f 18 bd 61 e7 01 bd 8a 2c 9f bd
       -0.04014515 -0.03718517 -0.0317148 -0.07772167
000270 ae 16 b0 3d 09 d0 d8 3c 4f 16 d2 bc 95 51 fc 3c
       0.08598076 0.026466386 -0.025645403 0.03080062
000280 02 5b 0d 3d 97 41 f6 bc 2c cb 06 3d 63 bc d3 3c
       0.03451062 -0.030060573 0.032908604 0.025846666
000290 1e fc bf bd 7e 7b 4a 3b 7d 7e b3 3d 3b d6 d0 3a
       -0.093742594 0.003089636 0.0876436 0.0015932986
0002a0 85 4b c1 bd 68 71 8d bd df 02 57 bd fd 6b 26 3d
       -0.09438232 -0.06906396 -0.052492972 0.04063033
0002b0 ee ca 78 bb 1c 12 50 3d 82 95 13 bd f4 d2 1e 3d
       -0.0037962752 0.05079852 -0.036031254 0.0387754
0002c0 c0 f7 37 bd 08 0e c8 bd df ac 07 3d 72 07 36 bd
       -0.044914007 -0.09768301 0.033123847 -0.044440694
0002d0 bc 0c b8 3d c5 30 2c bd ff 57 bb bd da 0d 19 3d
       0.08986804 -0.042038698 -0.09147643 0.037366726
0002e0 75 a8 fc 3c c3 e1 bf 3d 25 65 95 3d 00 1d b6 3c
       0.030842045 0.093692325 0.072946824 0.022230625
0002f0 26 aa 99 bc b9 e4 56 bc 34 d4 ce 3d 2f cc 75 3b
       -0.01875789 -0.013116055 0.10099068 0.0037505736
000300 35 16 a1 3d 96 14 ed bc a4 b0 97 3d 96 08 25 3d
       0.07865564 -0.02894048 0.074067384 0.04029139
000310 f7 4b 83 3d 4e 4e 75 bd c8 3e 06 bd 48 78 2a 3d
       0.064109735 -0.05988913 -0.032774717 0.041618615
000320 3f 14 83 3d f9 c1 33 3d 6f 27 83 3d 11 e6 f0 3b
       0.06400346 0.04388616 0.06404006 0.007351645
000330 1c 03 ab 3c d4 2b c7 bd a0 62 98 3d f6 28 8b bd
       0.020875506 -0.097251564 0.07440686 -0.06794922
000340 51 ac c0 bc 7f ea 6b 3d 2b f6 44 3d 41 fa a9 bd
       -0.023519667 0.05759668 0.048086327 -0.08299685
000350 46 02 2f bd c1 ca ad bd 7f cf d2 bc 47 9c b9 bd
       -0.042726777 -0.08485938 -0.025733707 -0.09063011
000360 a7 07 5c bd 99 40 c6 3d 68 09 12 bd 2c 0f 68 3c
       -0.053718235 0.0968029 -0.0356535 0.0141637735
000370 23 c1 a3 bd b8 f0 84 bd c4 34 b7 3c d7 87 dd 3c
       -0.07995822 -0.06491226 0.022364028 0.027042313
000380 af 04 77 3d 4c 84 2a 3d 21 6a cb 3d 6f 14 6f bd
       0.0603072 0.041630074 0.09932352 -0.058369096
000390 30 6f 99 bd 2e fb 6e 3d 9b d4 69 3d 8f 8f a7 bd
       -0.074919105 0.058345012 0.057087522 -0.081816785
0003a0 8e 2b 99 3d af c7 21 3d 29 79 28 3b 8a f2 0c 3d
       0.074790105 0.039497074 0.0025706983 0.03441099
0003b0 58 9c 73 3d 29 0b d8 bb 92 98 1f bd 62 0e ca bc
       0.059475273 -0.0065931273 -0.03896386 -0.024665061
0003c0 79 f3 9c bd d4 f7 b0 bd 10 64 6a bd 65 24 b6 bd
       -0.07663626 -0.086410195 -0.057224333 -0.088936605
0003d0 2f 5c c1 3d 39 f3 3f 3d 49 c2 27 bc bc 79 73 3d
       0.09441411 0.046862815 -0.010239192 0.059442267
0003e0 e8 e2 bd bd 70 28 be 3d 95 cb 7c 3d 70 c9 2a 3d
       -0.092717946 0.092850566 0.06171759 0.041696012
0003f0 6c ed c2 3d f1 2b c1 bd 03 2e bb 3d 56 5d 00 bb
       0.09517941 -0.09432209 0.091396354 -0.0019586883

conv2d_11/Conv2D_bias f4 [32]
000000 00 00 00 00 00 00 00 00 00 00 00 00 00 00 00 00
       0.0 0.0 0.0 0.0
000010 00 00 00 00 00 00 00 00 00 00 00 00 00 00 00 00
       0.0 0.0 0.0 0.0
000020 00 00 00 00 00 00 00 00 00 00 00 00 00 00 00 00
       0.0 0.0 0.0 0.0
000030 00 00 00 00 00 00 00 00 00 00 00 00 00 00 00 00
       0.0 0.0 0.0 0.0
000040 00 00 00 00 00 00 00 00 00 00 00 00 00 00 00 00
       0.0 0.0 0.0 0.0
000050 00 00 00 00 00 00 00 00 00 00 00 00 00 00 00 00
       0.0 0.0 0.0 0.0
000060 00 00 00 00 00 00 00 00 00 00 00 00 00 00 00 00
       0.0 0.0 0.0 0.0
000070 00 00 00 00 00 00 00 00 00 00 00 00 00 00 00 00
       0.0 0.0 0.0 0.0

conv2d_11/kernel f4 [32, 3, 3, 32]
000000 d4 5d 93 3c f3 06 39 3d a9 01 54 bd 5e 9e 61 3c
       0.017989077 0.045172643 -0.051759396 0.013770668
000010 71 d3 ba bd 4f 5e 21 bd 82 1a 48 3d 57 ad dd bc
       -0.091223605 -0.03939658 0.048853405 -0.027060194
000020 84 be c7 3d 5a b3 ab bd 35 37 fe bc 8a 36 51 bd
       0.09753135 -0.08383818 -0.031032184 -0.051077403
000030 b0 e0 b5 3c ce da 98 bb fe 96 13 bd 3a 1e a5 bc
       0.022201866 -0.0046647554 -0.03603267 -0.020156015
000040 c4 5c 8b bd 5f ba c6 bc 2f 78 0a 3d b9 e9 8f bc
       -0.06804803 -0.02425879 0.033806022 -0.017567502
000050 ef 3a 98 bd 3d 2d 1b 3d ec cc ce bc 27 f9 56 bd
       -0.07433116 0.03788494 -0.025244199 -0.052483704
000060 af bc 95 bb cf 1d 14 bc d3 42 8a 3d 37 cf 44 bc
       -0.004569612 -0.00904031 0.06751027 -0.0120122945
000070 a8 dd e6 bc 87 6e 95 3d 67 a9 ba 3d ba a7 13 bd
       -0.028181866 0.07296472 0.09114342 -0.03604863
000080 73 dc 95 3d f8 14 05 bd 9a d7 d5 3b 56 23 17 bc
       0.07317438 -0.0324907 0.006525946 -0.009224733
000090 3d 9d 65 3d 11 80 3e bc f6 c8 61 3d 8f 83 f5 bb
       0.056058157 -0.011627213 0.055123292 -0.0074924896
0000a0 58 83 76 bd 34 49 68 bb 9d 90 58 3d 19 ea 57 3d
       -0.060183853 -0.0035444023 0.05287229 0.052713487
0000b0 7f 6c ae 3d 50 28 b0 3d 32 b4 22 bd 41 47 40 3a
       0.08516788 0.08601439 -0.03972263 0.00073348364
0000c0 80 d3 5b 3d 40 5f c2 3c b3 19 2e 3d 3c fc b5 3d
       0.0536685 0.02372706 0.042504977 0.088860005
0000d0 4e af b8 bd 31 df 87 3d 99 08 02 3d e1 e5 c6 bd
       -0.09017812 0.06634367 0.03174648 -0.09711815
0000e0 a9 39 70 3d 94 99 48 bd f3 1b cb 3d 9a c3 e0 bc
       0.05864874 -0.04897459 0.0991744 -0.02743702
0000f0 0f f9 c1 bd ed 7a a5 bd aa 54 86 3d 6f dd c4 3c
       -0.09471332 -0.08080087 0.06559117 0.024031369
000100 19 03 bc bd 92 c9 2f bd 0b e3 a8 3d 29 66 c3 bd
       -0.09180278 -0.04291684 0.0824643 -0.0954097
000110 50 89 87 3c d8 73 f3 bc 72 23 95 bd 4c cd 11 3d
       0.016544968 -0.029718325 -0.07282151 0.035596177
000120 00 13 11 bd eb 4e 62 bd a4 c9 85 bb 07 21 52 bd
       -0.03541851 -0.055251043 -0.0040828753 -0.05130103
000130 07 2b ae ba 19 c7 8e bc ce 0b 18 3d da a9 cd bd
       -0.001328797 -0.017428922 0.037120633 -0.10042162
000140 62 b3 0b 3c a5 e5 b4 bb c6 78 46 bd 90 e4 35 3d
       0.008526655 -0.00552054 -0.048455022 0.044407427
000150 ad c0 78 bd ce 13 30 bc 57 d3 5e 3c 04 4a 5b 3d
       -0.060730625 -0.010746909 0.013600192 0.053537384
000160 9b 87 8f 3d 8b b1 a0 3d 7d 79 b0 bd 3f 9b 2d bd
       0.070082866 0.07846364 -0.08616922 -0.042384382
000170 ce 84 af bc ee e6 bb 3d fa 94 17 3d d7 41 2c bc
       -0.02142563 0.09174906 0.03700731 -0.010513744
000180 45 10 32 bd e8 8f 68 bd 0f 1c ab bd 45 1f fe bc
       -0.043472547 -0.056777865 -0.08354961 -0.03102077
000190 62 b2 7a 3d 8c c2 0c bd 0a 8f c2 bd 0d 6b c0 bc
       0.061205275 -0.03436522 -0.09499939 -0.023488546
0001a0 65 64 b3 3c 86 a0 98 3d 71 1e 73 bd 6d da 1b 3d
       0.021898458 0.074524924 -0.059355203 0.038050104
0001b0 12 55 92 bd f2 35 54 3d 43 73 ad bd 21 8e 9b 3d
       -0.07145132 0.05180926 -0.0846925 0.07595468
0001c0 48 ae 93 3d ce c5 b9 bd bd 5e 0f 3d fc 88 8b bd
       0.07210976 -0.090709314 0.03500246 -0.06813237
0001d0 a7 c0 d2 bc fd 24 b5 bd 93 ad d2 bc f0 da 12 3d
       -0.02572663 -0.088449456 -0.025717532 0.035853326
0001e0 4e 80 31 3d 41 d6 ca 3d 74 d8 79 bd 0f 0a 4d bd
       0.04333525 0.09904147 -0.06099744 -0.05005842
0001f0 f9 f0 94 3d 38 c0 c9 3d 94 04 07 3d 9d 00 8f 3d
       0.072725244 0.09851116 0.03296335 0.06982539
000200 ff 59 45 bc ef 30 3d bd cb 6a 90 3d c8 5b 67 bd
       -0.0120453825 -0.046189245 0.07051619 -0.056484014
000210 d9 14 70 3c 0e e9 a9 3d 5b 98 53 bc d7 7b c5 3c
       0.014653408 0.08296405 -0.012914742 0.024106903
000220 64 d9 bb bd 02 f1 3c 3c 3e de bb 3d 41 23 40 3a
       -0.09172323 0.01153207 0.09173249 0.0007329472
000230 95 e3 8d 3d 22 6c 0c bc 19 05 29 3c 8a 81 ce 3d
       0.069281735 -0.008570703 0.010316157 0.10083301
000240 13 51 26 bd 9c 43 b7 bc 41 71 9f bd cf ba 6b 3d
       -0.040604662 -0.022371106 -0.07785273 0.0575512
000250 23 d1 d0 3c c0 e4 8c 3d cf e1 62 bd 40 6f 92 3d
       0.02549035 0.06879568 -0.05539113 0.071501255
000260 b2 52 bd 3c 75 2b 3b bd ad 38 b1 bd 69 a3 a7 bc
       0.023110721 -0.04569574 -0.08653388 -0.020463662
000270 9d 97 8f 3c 99 92 63 3d 0d 38 9b bd 16 69 e0 3c
       0.01752835 0.05555973 -0.0757905 0.027393859
000280 6b cf 82 bd dd bb e5 bc ed 65 ab bd 8f 4a 16 3d
       -0.06387218 -0.028043682 -0.0836905 0.0366922
000290 94 6b 7f 3d 9d 06 f2 bc 6a b5 bc 3c 42 49 ca 3d
       0.062358454 -0.02954417 0.023035724 0.09877254
0002a0 d9 01 cf bd 2e 6c 30 3c df fb 2c 3d 5a de 8d bd
       -0.10107774 0.01076798 0.04223239 -0.06927176
0002b0 79 c2 b7 bd a4 32 bd 3d b5 a5 8a 3d ec 1c b7 3c
       -0.089726396 0.092381746 0.06769887 0.022352658
0002c0 5e f4 f9 3c 6f 98 9c 3d 82 bf 3d 3d f8 de 86 3c
       0.030512031 0.07646262 0.046325214 0.016463742
0002d0 8a b5 36 bd ef 8a f6 ba 14 93 b5 3c bf 10 b4 3d
       -0.044606723 -0.0018809716 0.022164859 0.087922566
0002e0 96 7a b6 3d 14 8b 37 bd 9c df 37 bc be b1 c7 3d
       0.089101 -0.04481037 -0.011222746 0.097506985
0002f0 28 3f 42 3d b7 11 ae bd b7 5f b9 bc 40 f4 59 bc
       0.04742351 -0.084994726 -0.022628648 -0.013302863
000300 ee 28 23 3d df 44 c1 bd 60 61 67 3d ea 50 72 bd
       0.039833955 -0.09436964 0.05648935 -0.059159197
000310 38 e7 ab 3c 5c 93 cf bb 5d 13 c6 3d e1 58 f0 bc
       0.020984277 -0.0063347053 0.09671662 -0.029339256
000320 20 1f 73 3d 31 37 8a bd 66 aa c3 3d 23 0a c0 3d
       0.059355855 -0.06748808 0.09553985 0.093769334
000330 b6 ec 7f bd 24 a1 c5 bd ef a1 ba 3c f1 c3 bf 3d
       -0.062481605 -0.09649876 0.022782294 0.09363545
000340 05 af 64 3c 3b af eb 3c 20 41 59 bd 8c 77 e8 3c
       0.0139577435 0.02877008 -0.053040624 0.028377317
000350 74 8d b0 bd ae 84 c8 bb 5f 9e c6 3c 98 f4 ab 3b
       -0.0862073 -0.0061193323 0.02424544 0.0052476637
000360 b0 8e a1 bd 90 39 87 3d 8c a0 b1 3d 54 cc 86 bd
       -0.078885436 0.06602776 0.086732 -0.06581941
000370 3e ec 97 bd e7 ab 82 3d c4 03 c2 3d c2 dd c1 3d
       -0.074181065 0.06380444 0.094733745 0.09466125
000380 f1 7f 14 bd 04 59 b0 3d b8 76 37 3d e6 22 b6 3d
       -0.036254827 0.086107284 0.044790953 0.08893375
000390 8e a9 55 3d 07 dd b9 bd 5b de 38 bd d1 0a 04 3d
       0.052163653 -0.09075361 -0.04513393 0.032236878
0003a0 ef 19 94 3c 01 26 90 3d 17 86 a4 bd e0 77 98 bd
       0.018078772 0.07038499 -0.08033388 -0.07444739
0003b0 28 ae 06 3d 6d 11 1b bb 47 b8 90 3d 39 fb ac bd
       0.032880932 -0.002366151 0.07066398 -0.084463544
0003c0 9d 4e 96 3d a9 d6 03 bd 04 ab a9 bd 22 87 9e 3d
       0.07339213 -0.032187138 -0.08284572 0.07740618
0003d0 a1 d2 2f bd 29 05 71 3d 16 5f 86 bd 0d a4 71 3d
       -0.04292548 0.05884281 -0.06561105 0.05899434
0003e0 04 af a8 bd 7e 1c bd 3d d4 79 85 3b d0 5d b0 3d
       -0.082365066 0.0923395 0.004073361 0.08611643
0003f0 50 91 f3 3b 6a 5a 0d 3d 05 05 cd bd 55 aa 2b bd
       0.007433094 0.034510054 -0.10010723 -0.04191049

conv2d_12/Conv2D_bias f4 [32]
000000 00 00 00 00 00 00 00 00 00 00 00 00 00 00 00 00
       0.0 0.0 0.0 0.0
000010 00 00 00 00 00 00 00 00 00 00 00 00 00 00 00 00
       0.0 0.0 0.0 0.0
000020 00 00 00 00 00 00 00 00 00 00 00 00 00 00 00 00
       0.0 0.0 0.0 0.0
000030 00 00 00 00 00 00 00 00 00 00 00 00 00 00 00 00
       0.0 0.0 0.0 0.0
000040 00 00 00 00 00 00 00 00 00 00 00 00 00 00 00 00
       0.0 0.0 0.0 0.0
000050 00 00 00 00 00 00 00 00 00 00 00 00 00 00 00 00
       0.0 0.0 0.0 0.0
000060 00 00 00 00 00 00 00 00 00 00 00 00 00 00 00 00
       0.0 0.0 0.0 0.0
000070 00 00 00 00 00 00 00 00 00 00 00 00 00 00 00 00
       0.0 0.0 0.0 0.0

conv2d_12/kernel f4 [32, 3, 3, 32]
000000 d0 54 5b 3d 35 16 3f 3d b9 10 cf bd cb 1f 10 bd
       0.05354768 0.046652038 -0.101106115 -0.03518657
000010 f3 d4 b8 3b a7 3b 36 bd ce 48 ca 3b 7e 7c 6d bd
       0.00564062 -0.044490483 0.00617323 -0.057980053
000020 ee 31 cd bd e9 a0 fd bc ec ec fe 3c 85 23 86 bd
       -0.10019289 -0.030960517 0.031118833 -0.065497436
000030 6a bb 55 3c 75 70 57 3d 2f e1 5d 3d f7 07 c4 bd
       0.013045171 0.05259748 0.05416983 -0.09571832
000040 f9 e9 d8 3c ef 0a 51 3d df 64 84 3d b8 4e 86 bd
       0.026478754 0.051035818 0.06464552 -0.06557983
000050 ae 66 88 bd 2a 7c a1 bd e5 b5 82 3d 36 9e 61 bb
       -0.066602096 -0.078850105 0.0638235 -0.0034426576
000060 25 7d 8f bd 9f 2a 94 3d 0f 6d 78 bd 3e 0c 99 3b
       -0.07006291 0.07234692 -0.06065088 0.004670649
000070 4f 42 95 3d 04 86 86 3b d0 27 cf 3d c5 f5 a7 3c
       0.07288038 0.0041053314 0.101150155 0.020502934
000080 6f 72 a9 bd ac 1e 9d 3c 64 ed 31 bd fa 74 5d bd
       -0.082737796 0.019179665 -0.043439284 -0.054066636
000090 56 60 c2 3d e7 b4 2e 3c eb c2 46 3d 6e 5b 99 3b
       0.09491031 0.010663248 0.048525732 0.0046800887
0000a0 57 69 2e 3d 79 61 22 bd bb cf cc bd 5d 32 24 bd
       0.04258093 -0.03964374 -0.10000559 -0.040087093
0000b0 ab ac 82 bd b1 aa 6f bd 1b 9a c7 3d 08 0c 2c 3d
       -0.0638059 -0.058512393 0.0974619 0.04200366
0000c0 48 b2 66 bd 13 bf 38 bd d1 37 64 3d 92 46 be 3c
       -0.056322366 -0.045104098 0.055717293 0.02322701
0000d0 e3 22 6b 3c 88 fa 12 3d dc 5c bc bd cf ea 45 3d
       0.014351579 0.035883456 -0.09197399 0.048319634
0000e0 26 c4 cf bd 83 24 90 3d 0b e9 5f bd f2 c9 13 bd
       -0.10144834 0.07038214 -0.054665606 -0.036081262
0000f0 f2 40 a3 3d 4c 88 06 3d ba b1 19 3d 26 7d 31 3d
       0.07971372 0.032844827 0.03752301 0.04333224
000100 21 5b b2 3c aa 61 85 3d bb 9a 15 3d f4 ea 74 3d
       0.02177197 0.065127686 0.036524516 0.05979438
000110 ee 07 a5 3c a7 df b9 bc 12 98 bb bb ac 6f e7 3c
       0.020145383 -0.022689654 -0.0057249153 0.028251491
000120 35 b3 57 3d 44 07 cf 3d 7a a4 0b bc bf 29 c1 3d
       0.05266114 0.10108808 -0.008523101 0.094317906
000130 88 74 dc bc 8b 0a ca bd a2 06 bc 3c 47 e4 2d 3d
       -0.026911035 -0.09865292 0.022952382 0.04245403
000140 f1 0f 88 bd bc d0 cd 3d 1b ff a2 3d 69 df cc bd
       -0.066436656 0.100495785 0.07958814 -0.100035496
000150 2c d1 b7 bd ba e6 85 3d 74 62 8c bd dd c8 87 bd
       -0.08975443 0.06538148 -0.06854716 -0.066301085
000160 e3 f4 52 3d eb 2f 9c 3d cf e0 95 39 5a 01 48 bd
       0.051503073 0.07626327 0.0002858699 -0.048829414
000170 ce f3 b7 3d 0c a6 13 3d ea e6 90 3d 7e 79 a4 bc
       0.08982049 0.036047027 0.07075293 -0.020077463
000180 25 0a 96 bd a0 de 74 bc 84 dd 12 3d 72 d1 f8 bc
       -0.07326154 -0.014945656 0.035855785 -0.030373309
000190 45 7d 95 3d ca 12 01 bd f5 b4 01 3d 56 a9 44 bd
       0.07299284 -0.03151206 0.031666715 -0.048013054
0001a0 a7 c3 c6 3c 79 62 1b bd 18 e5 1f 3d 8f 97 f5 3c
       0.024263216 -0.037935708 0.03903684 0.029979495
0001b0 ed db 26 3d 1c cf 06 bc fe ee 80 bd 5f de dd 3c
       0.04073708 -0.00822809 -0.06295584 0.027083574
0001c0 1b 3f 95 bc fb c8 ad 3d 4b ef 5f bd 3e c3 3c 3d
       -0.018218568 0.084855996 -0.054671567 0.046084635
0001d0 be 0e 37 bd e3 c8 ad bc 86 b3 30 3c 31 9b 02 3d
       -0.044691794 -0.021213954 0.010784989 0.031886283
0001e0 a5 8d c3 bd f2 57 2a bd 2f 4e b8 bd 73 00 82 3d
       -0.09548501 -0.041587777 -0.08999287 0.06347742
0001f0 9e c7 59 bd 4b aa a1 3d f0 da 1f 3d 3c 60 b7 3c
       -0.053168885 0.07893809 0.039027154 0.022384755
000200 40 ff 12 3d 87 d9 44 3d 2f b7 a1 bd 9d bb 02 3d
       0.035887957 0.048059013 -0.078962676 0.031917203
000210 48 c3 bf bd 79 86 2e bd b2 b2 6e 3c e4 f0 5a 3d
       -0.09363419 -0.042608712 0.0145689715 0.053452387
000220 55 2e 7c bc 6c 3b b0 3d 7f a2 20 3d 9c 82 81 3d
       -0.015391906 0.08605084 0.03921747 0.0632374
000230 1f b0 ac 3d d8 47 9d 3d f3 49 a7 3d 11 e6 88 bd
       0.0843203 0.07679719 0.081684016 -0.06684507
000240 8c 89 e6 3c 09 a0 90 bd e7 3c 2f bd e3 c5 76 3d
       0.02814176 -0.07061774 -0.04278269 0.060247313
000250 4b 01 c7 bd 42 82 0c bc 48 c4 c4 bd 0a 77 bc 3d
       -0.097170435 -0.008575978 -0.0960775 0.092023924
000260 bf 8a 8b bd 4b 6f 97 bd 0f 83 ac bc 01 9b a7 3d
       -0.06813573 -0.07394274 -0.021058587 0.081838615
000270 44 e8 04 3c c7 ca a2 bd 2b 4d b9 3d 97 fd 69 bd
       0.008112017 -0.07948833 0.09047922 -0.057126608
000280 75 37 1a 3d 8f b7 ac bd 19 e3 57 3d ea f0 aa bd
       0.037650544 -0.084334485 0.05270681 -0.08346732
000290 82 dd 3d bc 8a e1 b0 3d 4f 8f 14 3c 5e 10 80 3c
       -0.011588456 0.08636768 0.009067371 0.015632804
0002a0 74 46 b2 3d 02 be 3d bd 49 21 34 3d b1 3a a1 bd
       0.08704844 -0.046323784 0.043977056 -0.078725226
0002b0 70 26 c9 bd b3 50 08 3c 1e 86 c3 bd 58 ce b5 bd
       -0.098217845 0.008320021 -0.09547065 -0.088772476
0002c0 49 9f cb bc 0d f8 26 3d 47 88 4e bd e3 86 20 3c
       -0.024856227 0.040763903 -0.050422933 0.0097977845
0002d0 a1 cf 58 3c bc 22 ce 3c 32 74 6e 3a 0a 29 81 bd
       0.013233096 0.025163047 0.0009096294 -0.06306656
0002e0 d5 64 b4 3b 16 05 79 3c 28 e0 43 3d 0e c1 a4 bd
       0.005505184 0.0151989665 0.047821194 -0.08044635
0002f0 da 51 d0 3d 08 45 ac bd df 14 88 3c e2 af 2f 3d
       0.10171862 -0.08411604 0.016611515 0.042892344
000300 b9 b6 70 3c b9 ac b2 3c 3d 72 4d bd 9f d5 a1 3d
       0.014692002 0.021810876 -0.050157774 0.07902073
000310 df 31 a0 bc 0d 82 b6 bd 1c a9 1e 3d bd 20 99 bd
       -0.01955503 -0.08911524 0.038735494 -0.074769475
000320 25 47 4d bd 5e aa b8 bd 05 33 b4 3a 42 a1 24 3d
       -0.050116677 -0.0901687 0.0013748115 0.04019285
000330 29 ce a1 3d bf 4c a6 bd 5e 98 90 bd 4b 8d 51 bc
       0.0790065 -0.08120107 -0.07060312 -0.0127900345
000340 b3 f1 d0 bd 48 13 12 3d b8 a7 88 bd b8 23 23 bd
       -0.102023505 0.03566292 -0.06672615 -0.039828986
000350 15 73 97 bd 17 52 c4 bd b4 be 29 3d 8f a7 cc bd
       -0.07394997 -0.0958597 0.041441634 -0.09992897
000360 4b 58 08 3d 34 4e a6 bd ec a1 50 3d 74 46 b0 3d
       0.033287328 -0.08120385 0.05093567 0.08607188
000370 9c fd 46 bd b9 ba 59 3a 5c 36 c2 bd e4 0d 36 3c
       -0.048581704 0.0008305717 -0.094830245 0.01111171
000380 9d d6 9c 3b ac b9 92 bc 22 40 19 bd 5f f1 ac 3d
       0.004786326 -0.0179108 -0.037414677 0.084444754
000390 c0 f1 86 bc d8 c6 ab bb 12 09 99 bd 19 6b 63 3d
       -0.016472697 -0.00524221 -0.07472433 0.05552206
0003a0 1a 70 8c 3d b4 e1 a3 3d a6 e6 18 bd 8d 17 48 bd
       0.06857319 0.08002034 -0.03732934 -0.048850585
0003b0 fc 8c a9 bd c1 e7 02 3d 40 a6 bd 3d 40 b9 a4 bd
       -0.08278844 0.0319593 0.09260225 -0.08043146
0003c0 7a 07 ed 3c 2e 3c 01 3d 8c 22 ff bc 08 b3 74 bc
       0.02893423 0.031551532 -0.031144403 -0.0149352625
0003d0 b9 56 b0 bd 64 53 bd bd 47 07 cd bd 59 87 ce bd
       -0.08610291 -0.09244421 -0.10011154 -0.10084409
0003e0 4a 84 25 3c 86 2f 18 3d 08 b1 b1 bd a0 2a c2 3b
       0.010102341 0.037154697 -0.08676344 0.0059254915
0003f0 3d 65 50 bd 76 ce 60 3b 4e cb e2 3c f1 76 a2 bd
       -0.0508778 0.0034302748 0.027684834 -0.079328425

conv2d_13/Conv2D_bias f4 [32]
000000 00 00 00 00 00 00 00 00 00 00 00 00 00 00 00 00
       0.0 0.0 0.0 0.0
000010 00 00 00 00 00 00 00 00 00 00 00 00 00 00 00 00
       0.0 0.0 0.0 0.0
000020 00 00 00 00 00 00 00 00 00 00 00 00 00 00 00 00
       0.0 0.0 0.0 0.0
000030 00 00 00 00 00 00 00 00 00 00 00 00 00 00 00 00
       0.0 0.0 0.0 0.0
000040 00 00 00 00 00 00 00 00 00 00 00 00 00 00 00 00
       0.0 0.0 0.0 0.0
000050 00 00 00 00 00 00 00 00 00 00 00 00 00 00 00 00
       0.0 0.0 0.0 0.0
000060 00 00 00 00 00 00 00 00 00 00 00 00 00 00 00 00
       0.0 0.0 0.0 0.0
000070 00 00 00 00 00 00 00 00 00 00 00 00 00 00 00 00
       0.0 0.0 0.0 0.0

conv2d_13/kernel f4 [32, 3, 3, 32]
000000 25 ac 25 bd c3 40 09 3d 6e 3c 19 3b 87 25 a1 bd
       -0.040447373 0.033509027 0.0023381966 -0.07868486
000010 8b bd d2 bb df f4 13 3c bc 20 5a 3d 90 15 68 3d
       -0.0064312867 0.00903055 0.053253874 0.05666119
000020 7b 3a 2f 3d 93 2c 69 3d 0e b6 79 3d 85 f7 94 bd
       0.04278038 0.056927275 0.060964637 -0.07273773
000030 e7 8e 2d 3d 4b 43 cc bd 5d a4 6f bd b1 f3 56 3d
       0.04237261 -0.099737726 -0.05850636 0.052478496
000040 66 08 7a 3d a9 1d cc bd d1 06 a2 bd a7 9f 73 bd
       0.061043166 -0.09966595 -0.079114564 -0.05947843
000050 34 8b 50 3d 54 b0 5d bd 2c 30 4f 3d 77 d3 98 bd
       0.050914004 -0.054123238 0.05058305 -0.07462209
000060 23 7f 8f 3d a1 15 c7 3d ed 46 8b bd f9 32 64 3d
       0.07006671 0.09720922 -0.068006374 0.055712674
000070 df 29 46 3b 90 64 b7 3d 0c 8c 66 bc cc b4 cd bd
       0.003023736 0.08954728 -0.014071476 -0.1004425
000080 05 92 cd bd 46 20 b1 3c 8e b0 24 3d d1 9e 59 3d
       -0.10037617 0.021621834 0.04020744 0.053129975
000090 ee a9 a3 bd 77 8c c7 bc a4 cb e6 bc 03 d8 48 bd
       -0.07991396 -0.024358971 -0.028173275 -0.04903413
0000a0 81 6f 82 3d 0a e5 25 3c f2 9b c9 3d 31 7f 7c 3d
       0.06368924 0.010125408 0.09844197 0.061644737
0000b0 0b 55 a2 3a c5 e5 c0 bc 18 18 8b bd 96 f4 b7 bd
       0.0012384964 -0.023547063 -0.06791705 -0.08982198
0000c0 20 90 4b bd 6f 35 60 bd 09 96 03 bd c2 7e 19 3d
       -0.049697995 -0.05473846 -0.032125507 0.0374744
0000d0 79 fc 26 3c e7 b1 07 3d 9b 25 a0 bd 98 dd a4 bd
       0.01019203 0.033128645 -0.07819673 -0.08050078
0000e0 d0 a2 36 bd 24 64 c7 bd e0 06 52 bd e4 bd cd 3d
       -0.044588864 -0.09735897 -0.051276088 0.100459844
0000f0 84 a9 85 bd fa e1 d3 ba 57 ef ae bc 1b 54 cd bd
       -0.06526473 -0.0016165369 -0.02135436 -0.100258075
000100 da 5b 30 3d 36 5d 17 3c 6f f9 bd bd 2e c0 8a bd
       0.043056346 0.009238532 -0.09276091 -0.067749366
000110 9b 6d a5 bd 1c 27 9e bc b7 64 08 bd 84 c1 ab 3d
       -0.08077546 -0.019305758 -0.033299174 0.083865196
000120 55 83 03 bd 17 e5 2e bc f3 cb cd bd f6 00 17 bd
       -0.03210767 -0.010674736 -0.10048666 -0.03686615
000130 e5 0e 8e 3d 18 76 d0 3d 9c 58 d0 bd 70 13 bc 3d
       0.06936435 0.101787746 -0.10173151 0.09183395
000140 2e 76 00 3d c6 11 87 3d a4 ca 1d 3c c8 71 06 3d
       0.031362705 0.06595187 0.009630833 0.032823354
000150 c5 09 bc bd d1 12 78 bd 73 94 55 bd 64 61 17 bd
       -0.09181551 -0.06056482 -0.052143525 -0.036958113
000160 01 f4 26 bc 35 72 c5 3d a9 ed 0f 3d 60 81 2a 3c
       -0.010190011 0.09640924 0.03513876 0.010406822
000170 79 10 af bd 5c 84 c3 3d 95 af 01 3d 26 38 b2 bd
       -0.08548064 0.0954673 0.03166159 -0.08702116
000180 c3 a7 0a 3d 9f 32 a2 3c 77 93 df bc e6 01 62 bc
       0.033851396 0.019799529 -0.027291996 -0.013794398
000190 09 ee 1c 3d a9 49 cf bd c3 96 89 3d 6e 24 c0 bd
       0.038312946 -0.101214714 0.06718209 -0.093819484
0001a0 46 6f 61 3d 4b 79 8f 3d 23 c1 a6 3d 04 3b 87 3d
       0.05503776 0.07005557 0.08142307 0.06603053
0001b0 d8 92 d0 bc 50 7e c3 bb fd 25 8a 3d 68 77 cf 3d
       -0.025460646 -0.0059659854 0.06745527 0.10130197
0001c0 3f 0a 99 bd 25 2c b4 3d 8f 89 ae 3d a3 53 b0 bd
       -0.074726574 0.087974824 0.08522331 -0.086097024
0001d0 a1 42 58 3d 8f 99 c7 3b d0 06 81 3d 31 16 c1 bd
       0.052797917 0.0060913037 0.063001275 -0.09428061
0001e0 17 11 cd bd 3d c1 c6 bd 18 64 9a bd 42 b1 78 3d
       -0.10013025 -0.09704826 -0.075386226 0.06071592
0001f0 70 db 68 3d f6 e3 97 bd 64 6b 50 bd 76 2c 51 bd
       0.056849897 -0.07416527 -0.050883666 -0.051067792
000200 e6 41 17 bd ca d7 c1 3d 15 e1 1a bd 15 ce 7b 3d
       -0.03692808 0.094649866 -0.03781231 0.061475832
000210 93 65 8e 3d c4 73 72 3d 64 e6 45 bd 23 10 3b bb
       0.069529675 0.059192434 -0.04831542 -0.0028543554
000220 15 a7 ae bd c9 fd 33 bd 1f e1 2e 3d 8d 98 70 3d
       -0.08527962 -0.0439432 0.04269516 0.058739234
000230 6a e9 af bd 4e ca 8c 3d cc 57 bf bd ce e8 c8 3d
       -0.08589442 0.06874524 -0.09342918 0.09810029
000240 58 2f ce bd 54 20 85 3a ae 70 62 3d a8 57 9f 3c
       -0.10067624 0.0010156729 0.05528324 0.019450977
000250 48 f7 a9 bb 9b 3b e9 3c 9b 1a be bd c8 f2 be bd
       -0.005186949 0.028470805 -0.09282418 -0.093236506
000260 e7 8f 36 bd b5 87 ef bc b6 87 8c 3d c8 74 42 bd
       -0.04457083 -0.029239515 0.06861822 -0.047474653
000270 24 4c 8d bd 8d 16 03 3c c2 86 0c 3c 24 e4 e6 bb
       -0.06899288 0.008000982 0.008577051 -0.0070462395
000280 b2 fa d3 3c 30 c5 42 3d 54 9f ca 3d 10 1f 81 bd
       0.025876377 0.047551334 0.09893671 -0.06304753
000290 d5 71 3f 3d 5c 84 e8 3c 59 90 70 3c 8a 9a a5 3c
       0.046739418 0.028383426 0.014682853 0.020215292
0002a0 10 4b 1d 3d 37 7c 6c bd a7 31 c8 bd c7 d7 88 3d
       0.038401663 -0.057735648 -0.097750954 0.06681781
0002b0 48 8e 3a bd f2 c5 d6 3c ca db 0a 3d f2 ce ed 3c
       -0.045545846 0.026217435 0.033901013 0.029029343
0002c0 6a 19 b0 bc 83 8e df bc cb bf b7 bd 35 15 ae bd
       -0.021496493 -0.027289635 -0.089721285 -0.08500139
0002d0 49 05 27 3d 66 d1 a4 3d fc ab e8 3c b4 f6 68 3b
       0.040776525 0.08047752 0.028402321 0.0035547437
0002e0 be 88 97 3d 72 b6 ec 3b 96 d0 f9 3c 13 63 81 bd
       0.073991284 0.0072238976 0.03049497 -0.06317725
0002f0 a2 c2 17 3d ba 38 60 3d c3 7b 90 3d 2b 54 2c 3d
       0.03705085 0.0547416 0.07054856 0.042072456
000300 1a 25 6e 3d 01 79 b3 bd 1a 5a d0 3d 5e a8 19 bc
       0.05814085 -0.08763314 0.101734355 -0.009378521
000310 35 05 6d bd 4d da 34 bc c7 f9 08 bd 81 70 26 3d
       -0.057866294 -0.011038375 -0.03344133 0.040634636
000320 95 6a 1a bc fc b7 18 bd c9 ae 57 3c 06 81 a8 bd
       -0.009424825 -0.037284836 0.013164231 -0.08227734
000330 7d 8e 4b 3c 72 42 3c 3d 01 99 96 3d 02 c6 0a bc
       0.012424109 0.045961805 0.07353402 -0.00847006
000340 4c 58 9e 3a 07 49 6d bd d8 f9 73 3d 32 1f 13 bd
       0.0012080758 -0.057930972 0.05956444 -0.035918422
000350 51 75 a9 bd 67 e7 df bb 6d f6 ad 3d f8 9c 2f bd
       -0.082743295 -0.006833005 0.084942676 -0.042874306
000360 4e 5b a5 bc f1 a6 9e bd c8 aa 74 3d 28 8c cf 3d
       -0.020185139 -0.07746685 0.059733182 0.101341546
000370 e1 96 27 bd 9f b8 ca 3d 29 b1 0e 3c 35 b0 cc bd
       -0.040915374 0.09898495 0.00870923 -0.09994546
000380 9d fa 48 bd d3 0c a8 3d 28 39 80 bd de 09 6e 3d
       -0.04906713 0.08205571 -0.06260902 0.05811488
000390 7c fb 9e 3b 42 fc 8b bb 1f 0d 76 bc 97 81 a9 bd
       0.0048517566 -0.004272015 -0.015017777 -0.082766704
0003a0 27 c9 2d 3c 07 d7 ba 3d a8 9d 9e 3c 23 14 39 bc
       0.0106070405 0.091230445 0.019362286 -0.011296305
0003b0 3a 1f 31 3d 91 ea 40 3d d7 a4 cf bd f2 e1 a5 bd
       0.04324267 0.0470987 -0.101388626 -0.08099736
0003c0 65 f9 9e bd 96 0a 17 bd 93 d0 a2 bc 41 33 7d 3d
       -0.07762412 -0.03687533 -0.019874847 0.061816458
0003d0 c6 d9 b1 3c 5d 56 7d 3d 0d 30 34 bc c4 84 4d bd
       0.021710288 0.06184994 -0.010997784 -0.050175443
0003e0 3d 8a ac 3d 49 2b cf bd c4 42 8b bd 3e e4 85 3d
       0.08424804 -0.10115678 -0.06799844 0.06537674
0003f0 d5 32 cd 3d 8a 39 6d 3d a6 89 19 3c a4 71 9f bc
       0.10019461 0.0579162 0.009371197 -0.019463368

conv2d_14/Conv2D_bias f4 [32]
000000 00 00 00 00 00 00 00 00 00 00 00 00 00 00 00 00
       0.0 0.0 0.0 0.0
000010 00 00 00 00 00 00 00 00 00 00 00 00 00 00 00 00
       0.0 0.0 0.0 0.0
000020 00 00 00 00 00 00 00 00 00 00 00 00 00 00 00 00
       0.0 0.0 0.0 0.0
000030 00 00 00 00 00 00 00 00 00 00 00 00 00 00 00 00
       0.0 0.0 0.0 0.0
000040 00 00 00 00 00 00 00 00 00 00 00 00 00 00 00 00
       0.0 0.0 0.0 0.0
000050 00 00 00 00 00 00 00 00 00 00 00 00 00 00 00 00
       0.0 0.0 0.0 0.0
000060 00 00 00 00 00 00 00 00 00 00 00 00 00 00 00 00
       0.0 0.0 0.0 0.0
000070 00 00 00 00 00 00 00 00 00 00 00 00 00 00 00 00
       0.0 0.0 0.0 0.0
